…
  from ._conv import register_converters as _register_converters
Using TensorFlow backend.
(975150, 8, 257)
(975150, 8, 41)


(16680, 8, 257)
(16680, 8, 41)


(975150, 257)
(975150, 257)
(975150, 257)
(975150, 41)
(975150, 41)
(975150, 40)


(16680, 257)
(16680, 257)
(16680, 257)
(16680, 41)
(16680, 41)
(16680, 40)


__________________________________________________________________________________________________
Layer (type)                    Output Shape         Param #     Connected to                     
==================================================================================================
mixed_LPS (InputLayer)          (None, 8, 257)       0                                            
__________________________________________________________________________________________________
mixed_MFCC (InputLayer)         (None, 8, 41)        0                                            
__________________________________________________________________________________________________
concatenate_1 (Concatenate)     (None, 8, 298)       0           mixed_LPS[0][0]                  
                                                                 mixed_MFCC[0][0]                 
__________________________________________________________________________________________________
flatten_1 (Flatten)             (None, 2384)         0           concatenate_1[0][0]              
__________________________________________________________________________________________________
dense_1 (Dense)                 (None, 2048)         4884480     flatten_1[0][0]                  
__________________________________________________________________________________________________
dropout_1 (Dropout)             (None, 2048)         0           dense_1[0][0]                    
__________________________________________________________________________________________________
dense_2 (Dense)                 (None, 2048)         4196352     dropout_1[0][0]                  
__________________________________________________________________________________________________
dropout_2 (Dropout)             (None, 2048)         0           dense_2[0][0]                    
__________________________________________________________________________________________________
speech_LPS (Dense)              (None, 257)          526593      dropout_2[0][0]                  
__________________________________________________________________________________________________
dynamic_noise_LPS (Dense)       (None, 257)          526593      dropout_2[0][0]                  
__________________________________________________________________________________________________
LPS_IRM (Dense)                 (None, 257)          526593      dropout_2[0][0]                  
__________________________________________________________________________________________________
speech_MFCC (Dense)             (None, 41)           84009       dropout_2[0][0]                  
__________________________________________________________________________________________________
dynamic_noise_MFCC (Dense)      (None, 41)           84009       dropout_2[0][0]                  
__________________________________________________________________________________________________
MFCC_IRM (Dense)                (None, 40)           81960       dropout_2[0][0]                  
==================================================================================================
Total params: 10,910,589
Trainable params: 10,910,589
Non-trainable params: 0
__________________________________________________________________________________________________
2018-12-26 15:12:29.155987: I tensorflow/core/platform/cpu_feature_guard.cc:137] Your CPU supports instructions that this TensorFlow binary was not compiled to use: SSE4.1 SSE4.2 AVX AVX2 FMA
…
(975150, 257)
(975150, 41)
(975150, 41)
(975150, 41)
(975150, 40)


(16680, 257)
(16680, 257)
(16680, 257)
(16680, 257)
(16680, 41)
(16680, 41)
(16680, 41)
(16680, 40)


(975150, 257)
(975150, 257)
(975150, 41)
(975150, 40)


(16680, 257)
(16680, 257)
(16680, 41)
(16680, 40)


__________________________________________________________________________________________________
Layer (type)                    Output Shape         Param #     Connected to                     
==================================================================================================
mixed_LPS (InputLayer)          (None, 257)          0                                            
__________________________________________________________________________________________________
speech_LPS (InputLayer)         (None, 257)          0                                            
__________________________________________________________________________________________________
dynamic_noise_LPS (InputLayer)  (None, 257)          0                                            
__________________________________________________________________________________________________
LPS_IRM (InputLayer)            (None, 257)          0                                            
__________________________________________________________________________________________________
mixed_MFCC (InputLayer)         (None, 41)           0                                            
__________________________________________________________________________________________________
speech_MFCC (InputLayer)        (None, 41)           0                                            
__________________________________________________________________________________________________
dynamic_noise_MFCC (InputLayer) (None, 41)           0                                            
__________________________________________________________________________________________________
MFCC_IRM (InputLayer)           (None, 40)           0                                            
__________________________________________________________________________________________________
concatenate_2 (Concatenate)     (None, 1191)         0           mixed_LPS[0][0]                  
                                                                 speech_LPS[0][0]                 
                                                                 dynamic_noise_LPS[0][0]          
                                                                 LPS_IRM[0][0]                    
                                                                 mixed_MFCC[0][0]                 
                                                                 speech_MFCC[0][0]                
                                                                 dynamic_noise_MFCC[0][0]         
                                                                 MFCC_IRM[0][0]                   
__________________________________________________________________________________________________
dense_3 (Dense)                 (None, 2048)         2441216     concatenate_2[0][0]              
__________________________________________________________________________________________________
dropout_3 (Dropout)             (None, 2048)         0           dense_3[0][0]                    
__________________________________________________________________________________________________
dense_4 (Dense)                 (None, 2048)         4196352     dropout_3[0][0]                  
__________________________________________________________________________________________________
dropout_4 (Dropout)             (None, 2048)         0           dense_4[0][0]                    
__________________________________________________________________________________________________
main_speech_LPS (Dense)         (None, 257)          526593      dropout_4[0][0]                  
__________________________________________________________________________________________________
main_LPS_IRM (Dense)            (None, 257)          526593      dropout_4[0][0]                  
__________________________________________________________________________________________________
main_speech_MFCC (Dense)        (None, 41)           84009       dropout_4[0][0]                  
__________________________________________________________________________________________________
main_MFCC_IRM (Dense)           (None, 40)           81960       dropout_4[0][0]                  
==================================================================================================
Total params: 7,856,723
Trainable params: 7,856,723
Non-trainable params: 0
__________________________________________________________________________________________________
16680/16680 [==============================] - 0s 29us/step
Iteration: 0  loss:  [15.919488479193452, 6.12909517288208, 0.4301975294554548, 8.912626668989516, 0.44756904347337406]
…
